…
module.features.11.expand3x3.weight torch.Size([256, 64, 3, 3])
module.features.11.expand3x3.bias torch.Size([256])
module.features.12.squeeze.weight torch.Size([64, 512, 1, 1])
module.features.12.squeeze.bias torch.Size([64])
module.features.12.expand1x1.weight torch.Size([256, 64, 1, 1])
module.features.12.expand1x1.bias torch.Size([256])
module.features.12.expand3x3.weight torch.Size([256, 64, 3, 3])
module.features.12.expand3x3.bias torch.Size([256])
module.classifier.1.weight torch.Size([1000, 512, 1, 1])
module.classifier.1.bias torch.Size([1000])
VE: model DataParallel(
  (module): SqueezeNet(
    (features): Sequential(
      (0): Conv2d(3, 64, kernel_size=(3, 3), stride=(2, 2))
      (1): ReLU(inplace=True)
      (2): MaxPool2d(kernel_size=3, stride=2, padding=0, dilation=1, ceil_mode=True)
      (3): Fire(
        (squeeze): Conv2d(64, 16, kernel_size=(1, 1), stride=(1, 1))
        (squeeze_activation): ReLU(inplace=True)
        (expand1x1): Conv2d(16, 64, kernel_size=(1, 1), stride=(1, 1))
        (expand1x1_activation): ReLU(inplace=True)
        (expand3x3): Conv2d(16, 64, kernel_size=(3, 3), stride=(1, 1), padding=(1, 1))
        (expand3x3_activation): ReLU(inplace=True)
      )
      (4): Fire(
        (squeeze): Conv2d(128, 16, kernel_size=(1, 1), stride=(1, 1))
        (squeeze_activation): ReLU(inplace=True)
        (expand1x1): Conv2d(16, 64, kernel_size=(1, 1), stride=(1, 1))
        (expand1x1_activation): ReLU(inplace=True)
        (expand3x3): Conv2d(16, 64, kernel_size=(3, 3), stride=(1, 1), padding=(1, 1))
        (expand3x3_activation): ReLU(inplace=True)
      )
      (5): MaxPool2d(kernel_size=3, stride=2, padding=0, dilation=1, ceil_mode=True)
      (6): Fire(
        (squeeze): Conv2d(128, 32, kernel_size=(1, 1), stride=(1, 1))
        (squeeze_activation): ReLU(inplace=True)
        (expand1x1): Conv2d(32, 128, kernel_size=(1, 1), stride=(1, 1))
        (expand1x1_activation): ReLU(inplace=True)
        (expand3x3): Conv2d(32, 128, kernel_size=(3, 3), stride=(1, 1), padding=(1, 1))
        (expand3x3_activation): ReLU(inplace=True)
      )
      (7): Fire(
        (squeeze): Conv2d(256, 32, kernel_size=(1, 1), stride=(1, 1))
        (squeeze_activation): ReLU(inplace=True)
        (expand1x1): Conv2d(32, 128, kernel_size=(1, 1), stride=(1, 1))
        (expand1x1_activation): ReLU(inplace=True)
        (expand3x3): Conv2d(32, 128, kernel_size=(3, 3), stride=(1, 1), padding=(1, 1))
        (expand3x3_activation): ReLU(inplace=True)
      )
      (8): MaxPool2d(kernel_size=3, stride=2, padding=0, dilation=1, ceil_mode=True)
      (9): Fire(
        (squeeze): Conv2d(256, 48, kernel_size=(1, 1), stride=(1, 1))
        (squeeze_activation): ReLU(inplace=True)
        (expand1x1): Conv2d(48, 192, kernel_size=(1, 1), stride=(1, 1))
        (expand1x1_activation): ReLU(inplace=True)
        (expand3x3): Conv2d(48, 192, kernel_size=(3, 3), stride=(1, 1), padding=(1, 1))
        (expand3x3_activation): ReLU(inplace=True)
      )
      (10): Fire(
        (squeeze): Conv2d(384, 48, kernel_size=(1, 1), stride=(1, 1))
        (squeeze_activation): ReLU(inplace=True)
        (expand1x1): Conv2d(48, 192, kernel_size=(1, 1), stride=(1, 1))
        (expand1x1_activation): ReLU(inplace=True)
        (expand3x3): Conv2d(48, 192, kernel_size=(3, 3), stride=(1, 1), padding=(1, 1))
        (expand3x3_activation): ReLU(inplace=True)
      )
      (11): Fire(
        (squeeze): Conv2d(384, 64, kernel_size=(1, 1), stride=(1, 1))
        (squeeze_activation): ReLU(inplace=True)
        (expand1x1): Conv2d(64, 256, kernel_size=(1, 1), stride=(1, 1))
        (expand1x1_activation): ReLU(inplace=True)
        (expand3x3): Conv2d(64, 256, kernel_size=(3, 3), stride=(1, 1), padding=(1, 1))
        (expand3x3_activation): ReLU(inplace=True)
      )
      (12): Fire(
        (squeeze): Conv2d(512, 64, kernel_size=(1, 1), stride=(1, 1))
        (squeeze_activation): ReLU(inplace=True)
        (expand1x1): Conv2d(64, 256, kernel_size=(1, 1), stride=(1, 1))
        (expand1x1_activation): ReLU(inplace=True)
        (expand3x3): Conv2d(64, 256, kernel_size=(3, 3), stride=(1, 1), padding=(1, 1))
        (expand3x3_activation): ReLU(inplace=True)
      )
    )
    (classifier): Sequential(
      (0): Dropout(p=0.5, inplace=False)
      (1): Conv2d(512, 1000, kernel_size=(1, 1), stride=(1, 1))
      (2): ReLU(inplace=True)
      (3): AdaptiveAvgPool2d(output_size=(1, 1))
    )
  )
)
module.features.0: <class 'torch.nn.modules.conv.Conv2d'> : torch.Size([256, 3, 224, 224]) : torch.Size([256, 64, 111, 111])
module.features.1: <class 'torch.nn.modules.activation.ReLU'> : torch.Size([256, 64, 111, 111]) : torch.Size([256, 64, 111, 111])
module.features.2: <class 'torch.nn.modules.pooling.MaxPool2d'> : torch.Size([256, 64, 111, 111]) : torch.Size([256, 64, 55, 55])
…
